mnist_parameters.npz (npz, 64646 bytes, 4 tensors)

W1 f8 [10, 784]
-0.007787743767342286 0.0011230116634283259 -0.00848285400661204 0.01819608385257015 -0.02545261096658169 -0.008065066571687728 -0.002559459633546723 0.010135336682716163
0.006832236240825815 -0.01903420413306173 -0.01296448242545731 0.012753176910086515 0.017082421521405183 0.002231262453395592 0.0066694791955419185 -0.0015928221798207835
0.004084431375291619 -0.0012256304657113286 -0.005144509029023422 -0.018223548619681586 -0.011100051879306476 -0.0035872843672290805 -0.002194137284449477 0.010037864392111266
-0.0037220257014478416 0.002454083472397068 0.006138494409555231 0.004599433357104364 -0.011952088489051585 0.000825869268746386 -0.003568125960351789 0.0018668382528196767
0.003714970103690686 -0.008151288802122496 0.017996571338368367 0.010032953912189353 -0.012965786914635756 0.009348086727876227 -0.003372883162749754 -0.00488582879799274
-0.008083992501706392 -0.004298423985281303 -0.0023961893573210677 0.00497269375257851 -0.004836881251076325 -0.011982298997620064 0.0007843442731967286 -0.0030336469905293253
0.014309091960412754 0.015432062727839929 -0.0063930914045889535 0.0012796098689196525 -0.014709124810065779 -0.005912461163963978 0.006697387916247455 -0.0034382061078252237
0.011725598796857207 0.011046831117565563 -0.014957047023924456 0.0007503784447718884 0.011865477212847857 -0.00721640259544371 -0.004714806535843875 0.006718456261343135
-0.022005314430267278 0.006243841078466868 0.02030111787495342 0.015099640111170053 -0.011341903639817626 0.007402605929550226 0.0017846315759340835 0.0075926254621898415
0.0076968070188050295 -0.0066992796428064355 -0.008411114475898722 -0.022734229962597056 -0.021124445057144656 -0.012252200232142343 -0.012784428141780163 0.0025841360786541105
0.011499289640154623 0.003955278018837333 0.005430214416966459 0.005037352799580277 -0.008245335080325865 -0.008395680576625634 0.022025221309134802 0.006119173315263242
-0.009784556736809587 -0.0044036997065518115 -0.001547083864733376 -0.012709952722690553 -0.003120994953779179 0.026287388309176547 0.051763913245535476 0.03310584621281547
0.058648527266553875 0.10340563652769615 0.07184362102043212 0.04196942131987931 0.05076899863435271 0.029119001421717056 0.01277969810519213 -0.021043458364265532
-0.037243741253380105 -0.04067938696618458 -0.022872708330023327 -0.01606065762064403 -0.0009414706667543106 0.02070738962948042 -0.0026864167721092655 0.016388899883371867
-0.017243888253648115 -0.0058679982722343775 0.0025142956468362245 0.004535204786615524 -0.0024618485779888157 0.006751497652396533 -0.016669009158725587 -0.0036738098058529396
0.025296898387080855 0.07214512158355095 0.1270777147955315 0.10347153002620292 0.12618777746352258 0.15390437783642 0.13415708323137412 0.14296413300125457
0.1980353685640121 0.06502660244546307 -0.020962526800245705 -0.04511746097268065 -0.06606278557453008 -0.05685552605769564 -0.016657874672099546 -0.0147031045677805
-0.0187005444740306 0.003579575593333993 0.011885797651613733 0.014383907129027738 -0.007188998285502698 0.010629294787786464 -0.01098149383188506 0.014455800993470942
0.03585939627585486 0.034652378099021254 0.04066106636723738 0.03390872761099417 0.07630234978832848 0.10744063028111867 0.11754527418337324 0.0756689338411235
0.059455256131575984 0.11917570913581955 0.13469651345376432 0.13821824709282668 0.16134666810273646 0.09364771075316183 0.1269960940451096 0.05868933335889149
-0.003154623506281071 0.016452194394853827 0.02603723986442896 0.04036529503307213 0.003630650623408471 0.03566858659013171 -0.01023155308273205 0.0029122732466032313
-0.003239249918363525 0.004970963455859739 -0.021964219234501127 -0.019700608567321507 0.015671525312324113 0.05937995625618448 0.08475229764986669 0.04001746706324626
0.056749921412605014 0.07171619372163202 0.05777016536505744 0.052826496071060554 0.060783797693420405 0.06404582699003478 0.11754350627430804 0.041596259125662886
0.09750425030228294 0.043736412033325546 0.06847210253403649 0.07480858265212437 0.005288840431697444 0.09581384393653512 0.0940865857759252 0.03280852135493954
0.010931722058935172 0.01754886343685777 0.0051450133440398 -0.0013566467170016683 0.0031816073042272228 -0.002398826378774082 -0.01627078538217204 -0.0009565724793791584
0.05212959237868838 0.10996671981337187 0.06866572785088261 0.04306876194207494 0.03710622547239094 -0.0028651014745844218 0.05419218776096659 0.09766422548905121
0.061867476528325256 0.03911072634521575 -0.028834338697039677 -0.016484602663672927 -0.03660562801276536 0.043290236498360626 0.04160253494674408 0.1826245352923965
0.1314834738285084 0.0726795623697925 0.058438172748556914 0.04600169201883824 0.030949679229986697 0.015190440915394106 0.0197841887669373 0.00013538573274444194
0.0011993477448085615 -0.0035990532251254513 0.007785900265991689 0.0052890670948573726 0.06539150608355015 0.08858475682235817 0.014146405179106569 -0.0032357058042863157
0.025396068386566464 0.045727439164485295 0.09259508770436853 0.06272065800573458 0.028259899195200396 -0.005574633637617372 0.01160940831177081 0.025108949855277892
0.07021714472005158 0.09832350808759738 0.08574696141369076 0.25373646228030644 0.16654646304319665 0.10252714749350193 0.05208688694543656 0.04912858946378354
0.03519015527939372 0.02329711152675503 0.016215585959164877 0.009710195888746808 -0.002946199523436052 0.0010105320911529892 0.011684061867558252 0.024872941959308913
00000000: 9f53 a58c 0ae6 7fbf 1e52 8497 4066 523f
00000010: 27f8 4764 755f 81bf 4f8d 3f84 fea1 923f
00000020: e00f ccce 3f10 9abf 8cdd 52e9 6a84 80bf
00000030: b20d 7d6d 93f7 64bf 8491 b0dc d5c1 843f
00000040: 5702 6873 1efc 7b3f b10d 07d1 b37d 93bf
00000050: 711a 3760 1f8d 8abf d2cb fd6d 561e 8a3f
00000060: 886c 15e7 0d7e 913f 551c 84e8 4b47 623f
00000070: dc55 6bb0 7451 7b3f 5e51 ecca c718 5abf
00000080: b3c7 df32 d6ba 703f defd 19b1 aa14 54bf
00000090: 09c2 89a0 6812 75bf 87b9 5aa5 31a9 92bf
000000a0: e9b6 71be 9fbb 86bf c909 3da1 1463 6dbf
000000b0: c10c 267c 70f9 61bf ef51 495a bb8e 843f
000000c0: d1ef 3355 a77d 6ebf 0fdf 2d08 961a 643f
000000d0: d080 c58b ad24 793f a512 95fd dad6 723f
000000e0: f55b 6f29 567a 88bf be37 01c0 e40f 4b3f
000000f0: 9fd6 d809 e73a 6dbf bcbe 894f 1696 5e3f
00000100: d023 3b63 db6e 6e3f 165a 9a76 9fb1 80bf
00000110: 958b 5a75 b16d 923f aa24 7b47 288c 843f
00000120: 6c43 1f76 ce8d 8abf 3a11 36f6 1625 833f
00000130: 0658 12dc 72a1 6bbf 2474 6bae 2903 74bf
00000140: 65d7 531b 578e 80bf 47d9 0e67 399b 71bf
00000150: 9e48 975d 2ca1 63bf 2c44 a550 3f5e 743f
00000160: adae 9b6c d6cf 73bf cbf9 9af2 2c8a 88bf
00000170: c197 4780 8eb3 493f fef2 94d3 04da 68bf
00000180: 851e 0bd0 154e 8d3f 03a1 ce65 d89a 8f3f
00000190: 557c 0c68 a42f 7abf a038 79a2 12f7 543f
000001a0: 2e9b 1850 d11f 8ebf b3d6 6835 aa37 78bf
000001b0: b33f 1a61 b86e 7b3f 48d1 47d9 702a 6cbf
000001c0: 073f de3a 9703 883f 89ba fe92 b89f 863f
000001d0: 95fa 7fde cca1 8ebf 3b2c a170 a196 483f
000001e0: 5c19 a564 ed4c 883f c673 4652 f28e 7dbf
000001f0: 74fe 0d3e d54f 73bf ebd1 c0de cf84 7b3f
00000200: 94c8 43a7 8f88 96bf fc27 bc53 2493 793f
00000210: 2f73 61f5 d0c9 943f 06b7 ab63 8fec 8e3f
00000220: 5ec1 a889 6c3a 87bf 0625 f6e5 3152 7e3f
00000230: 7049 4290 493d 5d3f e969 d0e0 7119 7f3f
00000240: f3c8 dee6 af86 7f3f d0d1 8f2f b470 7bbf
00000250: 0972 c6ac d839 81bf d1a2 c158 a447 97bf
00000260: 4c95 aa82 a5a1 95bf 7ba4 687a ae17 89bf
00000270: 03d5 22e6 b82e 8abf 9d8a 477e 532b 653f
00000280: e21c 7487 f08c 873f 87c6 ccdb 6833 703f
00000290: 0a58 4c15 fe3d 763f 7693 8518 0ca2 743f
000002a0: 39d2 1d24 eee2 80bf 75be 082c c131 81bf
000002b0: 0def d694 c78d 963f 0523 4814 6b10 793f
000002c0: 910c 86f9 ec09 84bf 4d66 8923 9d09 72bf
000002d0: 8ed0 9aa6 f058 59bf e6a6 38fa ac07 8abf
000002e0: 3822 3d68 3391 69bf c235 57c4 14eb 9a3f
000002f0: 084f 01b5 cc80 aa3f 96b5 94dd 3ff3 a03f
00000300: 0d07 2305 2e07 ae3f d5c7 1bb3 ca78 ba3f
00000310: 547f b5f2 5764 b23f 7a79 0018 047d a53f
00000320: 8307 92e9 64fe a93f 789d 311b 5fd1 9d3f
00000330: 5b01 510b 3e2c 8a3f 3385 e095 6a8c 95bf
00000340: baf1 5395 9c11 a3bf 233d 48b9 edd3 a4bf
00000350: c65b fe78 f16b 97bf 6582 ee7c 3472 90bf
00000360: ba37 a7dc a0d9 4ebf ec01 fa64 5134 953f
00000370: 4792 bf05 d301 66bf 7ae5 1074 40c8 903f
00000380: 08d3 6bc0 61a8 91bf 7575 c1ca 0a09 78bf
00000390: c39d 6b32 dc98 643f 90aa d3c3 8193 723f
000003a0: 0852 2ae4 de2a 64bf ce65 db59 75a7 7b3f
000003b0: fc17 c644 ae11 91bf bfba f89e 8918 6ebf
000003c0: a90d 0d1d 6ee7 993f 736d c449 1a78 b23f
000003d0: cf71 8c22 1544 c03f 6995 8735 1c7d ba3f
000003e0: 3b2d aecc eb26 c03f 2963 c27e 23b3 c33f
000003f0: 49b4 802e 0f2c c13f a1e5 de11 a64c c23f
00000400: be84 b713 3959 c93f ce8d df5a 95a5 b03f
00000410: a6be 315c 3377 95bf 6f62 b6c6 a219 a7bf
00000420: ea77 869f 7de9 b0bf f483 07e2 2a1c adbf
00000430: fc08 c00b c30e 91bf d972 254a a91c 8ebf
00000440: 66c1 bb4b 3c26 93bf fcf6 6b03 ea52 6d3f
00000450: 5dbc 9ac1 9457 883f 92ba a955 4f75 8d3f
00000460: 168d 6f08 3672 7dbf 23d7 f1cb cfc4 853f
00000470: 7a10 f426 777d 86bf e418 09c4 009b 8d3f
00000480: dda8 84ac 295c a23f b5ed 53dd f4bd a13f
00000490: 2919 89fc 86d1 a43f 20c1 4618 7c5c a13f
000004a0: 16e6 f200 8d88 b33f 14ac 51a9 3a81 bb3f
000004b0: a8bc 6a74 7217 be3f 68ba 2b0c 0a5f b33f
000004c0: e022 5259 eb70 ae3f b948 379d 4c82 be3f
000004d0: 70a6 1540 bc3d c13f 8bb0 7cb1 22b1 c13f
000004e0: d8ef 68f3 01a7 c43f 7ab4 07df 4bf9 b73f
000004f0: c05d 5273 6841 c03f d10b cd3e 870c ae3f
00000500: 472b 4d99 b9d7 69bf aa4a 7e13 d8d8 903f
00000510: 9f87 c896 81a9 9a3f 79f1 1e8c c2aa a43f
00000520: b38d 1ab6 06be 6d3f ae5e cc29 2743 a23f
00000530: c15e 05cf 47f4 84bf c1d6 3ccb 7adb 673f
00000540: c36b d00e 3389 6abf 467a 8fd7 6e5c 743f
00000550: ca6b 2dcd c97d 96bf 4922 0876 652c 94bf
00000560: 8b8b c742 320c 903f 9902 51b4 0c67 ae3f
00000570: d0c2 aa9a 53b2 b53f 5f5d 9c60 2b7d a43f
00000580: 1c11 0961 530e ad3f 44c5 a012 fe5b b23f
00000590: 94d8 da15 0d94 ad3f a996 f911 130c ab3f
000005a0: 7899 70ce 0d1f af3f be12 5eac 4e65 b03f
000005b0: b429 4ecb 5417 be3f bf4c 29d9 1a4c a53f
000005c0: 10f1 44de 09f6 b83f edaf a776 9e64 a63f
000005d0: 9271 1241 6387 b13f e473 f3bf a726 b33f
000005e0: 9fa6 014b c0a9 753f a722 368e 4187 b83f
000005f0: af5f e6f8 0e16 b83f 56c9 7f4c 47cc a03f
00000600: 2351 dbe5 5e63 863f 1850 2c4a 54f8 913f
00000610: df59 cd00 f012 753f 7b28 0852 303a 56bf
00000620: f079 406a 5010 6a3f f24a 0f1b b4a6 63bf
00000630: d4fb 62ec 49a9 90bf cba6 f1c1 4f58 4fbf
00000640: 9b2e d7dc bab0 aa3f 1530 3f69 c726 bc3f
00000650: 6dbf 79bf 1394 b13f aa74 0ad8 1b0d a63f
00000660: 2e8b c351 96ff a23f 1f0a 42a4 8d78 67bf
00000670: 239b 4314 14bf ab3f f2f2 76ce 8500 b93f
00000680: d11a c008 18ad af3f e3a8 2635 5206 a43f
00000690: a481 d2b6 bf86 9dbf 05e7 4ff5 56e1 90bf
000006a0: 2228 540e f9bd a2bf b23d fe4b 232a a63f
000006b0: 16ce 0d6e ed4c a53f d796 43a3 3d60 c73f
000006c0: c669 0752 73d4 c03f 0442 77b7 209b b23f
000006d0: b30a 96b1 9beb ad3f 872a 90a5 888d a73f
000006e0: 1e3b 75d0 45b1 9f3f 3729 8c77 2a1c 8f3f
000006f0: 9873 ed6e 4e42 943f cf64 c696 cabe 213f
00000700: ee7d cad5 6da6 533f 2153 c0fc c27b 6dbf
00000710: 0498 32b0 1be4 7f3f 3721 2e23 fda9 753f
00000720: 00a6 106c 7fbd b03f 64e4 7999 7dad b63f
00000730: 3344 cd5c caf8 8c3f ce00 7c53 c481 6abf
00000740: 174c ab4c 6d01 9a3f e08a 7b3f 9669 a73f
00000750: 48e4 75c9 4fb4 b73f 2911 eb06 760e b03f
00000760: 129a 53bb 29f0 9c3f a16c 9252 6dd5 76bf
00000770: 7b21 3368 acc6 873f 7f7d dc19 29b6 993f
00000780: 48ed 3034 c0f9 b13f 780a aabb ba2b b93f
00000790: 20d0 004b 83f3 b53f 60fc d2db 373d d03f
000007a0: f47a 04fe 6451 c53f 73cf 6f19 383f ba3f
000007b0: a852 f6e7 21ab aa3f b453 17ea 6127 a93f
000007c0: 6edf 21ac 7104 a23f b60b 65b0 32db 973f
000007d0: 4c36 858d d19a 903f 5347 3d6e f0e2 833f
000007e0: 7983 38d3 a022 68bf 1faa 1d92 7a8e 503f
000007f0: 9546 d83c d0ed 873f e607 15e1 4a78 993f

B1 f8 [10, 1]
0.021244541540773213 -0.40935200295001006 0.2933050275203407 0.4077267616442428 0.11488259471440601 -0.2838901984417402 0.05988875097910156 0.25115608943783
0.3134521292757723 -0.022631401637645772
00000000: d166 8b0c 21c1 953f 9e3b 4ebe d232 dabf
00000010: 8ef1 3c73 82c5 d23f 1cd3 bdfc 3118 da3f
00000020: 2a91 2d1b f268 bd3f 1595 7dcb 412b d2bf
00000030: c701 b505 bda9 ae3f 29e9 94fd f012 d03f
00000040: e376 0685 990f d43f 62d7 95a7 af2c 97bf

W2 f8 [10, 10]
0.3942409558717913 -0.9170128960326276 -1.147572157889959 -0.6343726266844115 -0.31859525566832825 -0.0310938122649381 -0.11501785921299704 1.0500203523209146
0.7042685481623998 0.2857013402958455 0.010904184175000472 0.6200099189035011 1.2684540510550577 -0.694506516740841 -0.1972620813819576 -0.6733956836635634
-0.3077674117176851 -0.8684057527095962 -0.6230638296684149 -0.7225940175119722 0.8354884588237736 0.5676383638346755 0.06594552604685844 0.01769391767444139
-0.11375375276639241 -0.2954031799168154 -1.1884738008729792 -0.4948319960612486 0.5564195124219143 0.8668059778663031 0.7925107590105597 -0.5622393600084927
0.48749269124140676 -0.1967800628278759 -0.4114571641778559 1.4428478275636216 -0.090701476268548 -0.7631162411005784 -0.3776736343058853 0.020489149178215465
0.0021575573367114092 0.5150142167826925 -0.9797628397122276 1.1216242181894516 0.6155422822754 -0.48242347258887197 0.8523487200027468 -0.2634769233284272
-0.5758730297172843 -0.03889325103741155 0.30413379672212504 -1.0843566080663454 0.5947991362574777 0.19549876538495867 0.541657257530475 -0.3668369795355901
-0.13242132835859882 1.2601166242107444 -0.749792209167398 -0.17624345505098854 -0.8941695791256646 -0.3401205313265011 -0.1756939768318206 -0.4924192588277233
0.9047005456508705 -0.8174184789849881 0.4762788123843595 -0.5511826974713993 0.21823726658074086 1.2254944918567434 -0.2745228496895104 -0.23699780049492766
0.15045540952697817 0.9227553629960767 -0.09272626374846972 0.5337407275721667 -0.13474377515246136 -0.14534815423577302 1.3780367197513048 -1.4205950479463536
-0.22747172476255043 1.0997171658909652 -0.17268830056504036 -0.8173102583586226 0.4078525206694124 0.4033925175056676 0.008608023789135387 0.6984799154169846
-0.5967142706783023 -0.03473113072328979 -0.9654349250183688 0.3636420602040637 -0.03900450563973195 0.5931375325495283 -1.348044091786862 0.27798643359569064
0.6747691140033901 0.04181916415386243 0.08343482966461219 -0.003602584507691231
00000000: cea3 0d6b 3e3b d93f 620d cf6d 2b58 edbf
00000010: 1700 7f9f 745c f2bf 0dca a2d2 c74c e4bf
00000020: 0c66 f05a dd63 d4bf d9bb 246b 0ed7 9fbf
00000030: da97 c677 cf71 bdbf c4a4 1524 e2cc f03f
00000040: 60af be31 5e89 e63f 149e 3f46 ee48 d23f
00000050: b197 5ed3 ee54 863f 565b 9c0a 1fd7 e33f
00000060: ba29 9c79 964b f43f 6158 08bb 6539 e6bf
00000070: 0661 2346 e23f c9bf 3948 d31a 758c e5bf
00000080: 9387 0616 76b2 d3bf a978 71dc fac9 ebbf
00000090: 27e2 778e 23f0 e3bf 37f9 2f7d 7d1f e7bf
000000a0: 72ac da4a 52bc ea3f 05ff 13ee 172a e23f
000000b0: 7053 b055 cee1 b03f 9fd6 ffb6 5a1e 923f
000000c0: 06ce ed47 f71e bdbf d622 38bd e2e7 d2bf
000000d0: aa6f ae1a fd03 f3bf d83c 06d2 53ab dfbf
000000e0: 1dab 164b 30ce e13f e237 dde3 dfbc eb3f
000000f0: 33b6 f585 3f5c e93f 9455 f865 ddfd e1bf
00000100: 7fef 7a8b 1433 df3f e6de 2ccf 1630 c9bf
00000110: a352 f66d 5055 dabf b0d8 879a e715 f73f
00000120: abb7 4542 3638 b7bf 9559 52c0 726b e8bf
00000130: 78ef f908 ce2b d8bf 6bbd 9286 1bfb 943f
00000140: f7d7 69c6 b9ac 613f a4d0 4118 ff7a e03f
00000150: aecd 4c99 375a efbf 7a67 783c 2cf2 f13f
00000160: 88b2 75ba 85b2 e33f a2e2 65b3 06e0 debf
00000170: 5360 a6d2 7046 eb3f 1690 3c50 cedc d0bf
00000180: f017 a946 8d6d e2bf 3a4a 7bf2 d0e9 a3bf
00000190: e2e8 a199 ed76 d33f 088b 8d50 8659 f1bf
000001a0: fb46 bd32 9808 e33f 9f4e de81 1a06 c93f
000001b0: 8880 d799 4155 e13f e766 84cf 417a d7bf
000001c0: 5ee9 4b9d 2ef3 c0bf dc18 a20c 7029 f43f
000001d0: 156d 253b 4cfe e7bf 46fd c941 258f c6bf
000001e0: b187 6d85 099d ecbf b6b5 afe7 88c4 d5bf
000001f0: 9e65 4ce6 237d c6bf fa7a 2511 cc83 dfbf
00000200: 92cd 078f 4ef3 ec3f ec5e 4ccc 4a28 eabf
00000210: 9ffc bd20 5a7b de3f d557 78e5 49a3 e1bf
00000220: a1c9 5de1 32ef cb3f e13e bf1c a09b f33f
00000230: 77f4 5a49 c891 d1bf 3bc1 2ca5 f155 cebf
00000240: 325b b673 1f42 c33f 34db 4841 3687 ed3f
00000250: a9aa 478e e8bc b7bf 07e7 2e6f 6714 e13f
00000260: 7748 cfb5 483f c1bf 8601 7db0 c49a c2bf
00000270: b54d 403b 700c f63f 52a0 7cdf c1ba f6bf
00000280: d157 4f21 cb1d cdbf c19f e506 7198 f13f
00000290: c011 aa75 a61a c6bf 31bd cad7 6727 eabf
000002a0: 4d71 7775 411a da3f 2cd4 88d9 2ed1 d93f
000002b0: 3f9d 4265 15a1 813f 171f 348d f259 e63f
000002c0: 67d5 b386 4818 e3bf 7c21 385d 47c8 a1bf
000002d0: e9d7 abc8 d7e4 eebf 73b2 0159 e945 d73f
000002e0: 6714 3d08 66f8 a3bf 4e92 0a90 fbfa e23f
000002f0: 46a6 7cae 9691 f5bf 569c 419c 87ca d13f
00000300: c7da 9f65 b597 e53f 0e17 c64c 5269 a53f
00000310: 44c0 c128 fc5b b53f e611 88d4 2a83 6dbf

B2 f8 [10, 1]
-0.0851948886057931 0.2669425267219326 0.029830773271087286 -0.043341438451447466 0.05462072216839791 0.46174551632847705 0.08732876300970184 0.15375913015543016
-0.675006913917978 -0.25068419067980796
00000000: 8c26 590c 55cf b5bf e9aa 8b1b 9615 d13f
00000010: 9d70 744e f58b 9e3f 03cf 6b59 d930 a6bf
00000020: 075a cb4e 3ff7 ab3f fa25 ed10 3d8d dd3f
00000030: 3976 2085 2d5b b63f 374f bd11 61ae c33f
00000040: 5440 7b19 a899 e5bf 2604 26b4 350b d0bf
